----------------------------------------------------------------
        Layer (type)               Output Shape         Param #
================================================================
            Conv2d-1           [-1, 16, 32, 32]             432
            Conv2d-2           [-1, 16, 32, 32]             432
       BatchNorm2d-3           [-1, 16, 32, 32]              32
       BatchNorm2d-4           [-1, 16, 32, 32]              32
            Conv2d-5           [-1, 16, 32, 32]           2,304
       BatchNorm2d-6           [-1, 16, 32, 32]              32
            Conv2d-7           [-1, 16, 32, 32]           2,304
       BatchNorm2d-8           [-1, 16, 32, 32]              32
            Conv2d-9           [-1, 16, 32, 32]           2,304
           Conv2d-10           [-1, 16, 32, 32]           2,304
      BatchNorm2d-11           [-1, 16, 32, 32]              32
      BatchNorm2d-12           [-1, 16, 32, 32]              32
       BasicBlock-13           [-1, 16, 32, 32]               0
           Conv2d-14           [-1, 16, 32, 32]           2,304
       BasicBlock-15           [-1, 16, 32, 32]               0
           Conv2d-16           [-1, 16, 32, 32]           2,304
      BatchNorm2d-17           [-1, 16, 32, 32]              32
      BatchNorm2d-18           [-1, 16, 32, 32]              32
           Conv2d-19           [-1, 16, 32, 32]           2,304
           Conv2d-20           [-1, 16, 32, 32]           2,304
      BatchNorm2d-21           [-1, 16, 32, 32]              32
      BatchNorm2d-22           [-1, 16, 32, 32]              32
       BasicBlock-23           [-1, 16, 32, 32]               0
           Conv2d-24           [-1, 16, 32, 32]           2,304
       BasicBlock-25           [-1, 16, 32, 32]               0
           Conv2d-26           [-1, 16, 32, 32]           2,304
      BatchNorm2d-27           [-1, 16, 32, 32]              32
      BatchNorm2d-28           [-1, 16, 32, 32]              32
           Conv2d-29           [-1, 16, 32, 32]           2,304
           Conv2d-30           [-1, 16, 32, 32]           2,304
      BatchNorm2d-31           [-1, 16, 32, 32]              32
      BatchNorm2d-32           [-1, 16, 32, 32]              32
       BasicBlock-33           [-1, 16, 32, 32]               0
           Conv2d-34           [-1, 16, 32, 32]           2,304
       BasicBlock-35           [-1, 16, 32, 32]               0
           Conv2d-36           [-1, 16, 32, 32]           2,304
      BatchNorm2d-37           [-1, 16, 32, 32]              32
      BatchNorm2d-38           [-1, 16, 32, 32]              32
           Conv2d-39           [-1, 16, 32, 32]           2,304
           Conv2d-40           [-1, 16, 32, 32]           2,304
      BatchNorm2d-41           [-1, 16, 32, 32]              32
      BatchNorm2d-42           [-1, 16, 32, 32]              32
       BasicBlock-43           [-1, 16, 32, 32]               0
           Conv2d-44           [-1, 32, 16, 16]           4,608
       BasicBlock-45           [-1, 16, 32, 32]               0
           Conv2d-46           [-1, 32, 16, 16]           4,608
      BatchNorm2d-47           [-1, 32, 16, 16]              64
      BatchNorm2d-48           [-1, 32, 16, 16]              64
           Conv2d-49           [-1, 32, 16, 16]           9,216
           Conv2d-50           [-1, 32, 16, 16]           9,216
      BatchNorm2d-51           [-1, 32, 16, 16]              64
      BatchNorm2d-52           [-1, 32, 16, 16]              64
           Conv2d-53           [-1, 32, 16, 16]             512
           Conv2d-54           [-1, 32, 16, 16]             512
      BatchNorm2d-55           [-1, 32, 16, 16]              64
      BatchNorm2d-56           [-1, 32, 16, 16]              64
       BasicBlock-57           [-1, 32, 16, 16]               0
           Conv2d-58           [-1, 32, 16, 16]           9,216
       BasicBlock-59           [-1, 32, 16, 16]               0
           Conv2d-60           [-1, 32, 16, 16]           9,216
      BatchNorm2d-61           [-1, 32, 16, 16]              64
      BatchNorm2d-62           [-1, 32, 16, 16]              64
           Conv2d-63           [-1, 32, 16, 16]           9,216
      BatchNorm2d-64           [-1, 32, 16, 16]              64
           Conv2d-65           [-1, 32, 16, 16]           9,216
       BasicBlock-66           [-1, 32, 16, 16]               0
      BatchNorm2d-67           [-1, 32, 16, 16]              64
           Conv2d-68           [-1, 32, 16, 16]           9,216
       BasicBlock-69           [-1, 32, 16, 16]               0
      BatchNorm2d-70           [-1, 32, 16, 16]              64
           Conv2d-71           [-1, 32, 16, 16]           9,216
      BatchNorm2d-72           [-1, 32, 16, 16]              64
           Conv2d-73           [-1, 32, 16, 16]           9,216
      BatchNorm2d-74           [-1, 32, 16, 16]              64
           Conv2d-75           [-1, 32, 16, 16]           9,216
       BasicBlock-76           [-1, 32, 16, 16]               0
      BatchNorm2d-77           [-1, 32, 16, 16]              64
           Conv2d-78           [-1, 32, 16, 16]           9,216
       BasicBlock-79           [-1, 32, 16, 16]               0
      BatchNorm2d-80           [-1, 32, 16, 16]              64
           Conv2d-81           [-1, 32, 16, 16]           9,216
      BatchNorm2d-82           [-1, 32, 16, 16]              64
           Conv2d-83           [-1, 32, 16, 16]           9,216
      BatchNorm2d-84           [-1, 32, 16, 16]              64
           Conv2d-85           [-1, 32, 16, 16]           9,216
       BasicBlock-86           [-1, 32, 16, 16]               0
      BatchNorm2d-87           [-1, 32, 16, 16]              64
           Conv2d-88             [-1, 64, 8, 8]          18,432
       BasicBlock-89           [-1, 32, 16, 16]               0
      BatchNorm2d-90             [-1, 64, 8, 8]             128
           Conv2d-91             [-1, 64, 8, 8]          18,432
      BatchNorm2d-92             [-1, 64, 8, 8]             128
           Conv2d-93             [-1, 64, 8, 8]          36,864
      BatchNorm2d-94             [-1, 64, 8, 8]             128
           Conv2d-95             [-1, 64, 8, 8]          36,864
           Conv2d-96             [-1, 64, 8, 8]           2,048
      BatchNorm2d-97             [-1, 64, 8, 8]             128
      BatchNorm2d-98             [-1, 64, 8, 8]             128
           Conv2d-99             [-1, 64, 8, 8]           2,048
      BasicBlock-100             [-1, 64, 8, 8]               0
     BatchNorm2d-101             [-1, 64, 8, 8]             128
          Conv2d-102             [-1, 64, 8, 8]          36,864
      BasicBlock-103             [-1, 64, 8, 8]               0
     BatchNorm2d-104             [-1, 64, 8, 8]             128
          Conv2d-105             [-1, 64, 8, 8]          36,864
          Conv2d-106             [-1, 64, 8, 8]          36,864
     BatchNorm2d-107             [-1, 64, 8, 8]             128
     BatchNorm2d-108             [-1, 64, 8, 8]             128
          Conv2d-109             [-1, 64, 8, 8]          36,864
      BasicBlock-110             [-1, 64, 8, 8]               0
     BatchNorm2d-111             [-1, 64, 8, 8]             128
          Conv2d-112             [-1, 64, 8, 8]          36,864
      BasicBlock-113             [-1, 64, 8, 8]               0
     BatchNorm2d-114             [-1, 64, 8, 8]             128
          Conv2d-115             [-1, 64, 8, 8]          36,864
          Conv2d-116             [-1, 64, 8, 8]          36,864
     BatchNorm2d-117             [-1, 64, 8, 8]             128
     BatchNorm2d-118             [-1, 64, 8, 8]             128
          Conv2d-119             [-1, 64, 8, 8]          36,864
      BasicBlock-120             [-1, 64, 8, 8]               0
     BatchNorm2d-121             [-1, 64, 8, 8]             128
          Conv2d-122             [-1, 64, 8, 8]          36,864
      BasicBlock-123             [-1, 64, 8, 8]               0
     BatchNorm2d-124             [-1, 64, 8, 8]             128
          Conv2d-125             [-1, 64, 8, 8]          36,864
          Conv2d-126             [-1, 64, 8, 8]          36,864
     BatchNorm2d-127             [-1, 64, 8, 8]             128
     BatchNorm2d-128             [-1, 64, 8, 8]             128
          Conv2d-129             [-1, 64, 8, 8]          36,864
      BasicBlock-130             [-1, 64, 8, 8]               0
     BatchNorm2d-131             [-1, 64, 8, 8]             128
          Conv2d-132            [-1, 128, 4, 4]          73,728
      BasicBlock-133             [-1, 64, 8, 8]               0
     BatchNorm2d-134            [-1, 128, 4, 4]             256
          Conv2d-135            [-1, 128, 4, 4]          73,728
          Conv2d-136            [-1, 128, 4, 4]         147,456
     BatchNorm2d-137            [-1, 128, 4, 4]             256
     BatchNorm2d-138            [-1, 128, 4, 4]             256
          Conv2d-139            [-1, 128, 4, 4]         147,456
          Conv2d-140            [-1, 128, 4, 4]           8,192
     BatchNorm2d-141            [-1, 128, 4, 4]             256
     BatchNorm2d-142            [-1, 128, 4, 4]             256
          Conv2d-143            [-1, 128, 4, 4]           8,192
      BasicBlock-144            [-1, 128, 4, 4]               0
     BatchNorm2d-145            [-1, 128, 4, 4]             256
          Conv2d-146            [-1, 128, 4, 4]         147,456
      BasicBlock-147            [-1, 128, 4, 4]               0
     BatchNorm2d-148            [-1, 128, 4, 4]             256
          Conv2d-149            [-1, 128, 4, 4]         147,456
     BatchNorm2d-150            [-1, 128, 4, 4]             256
          Conv2d-151            [-1, 128, 4, 4]         147,456
     BatchNorm2d-152            [-1, 128, 4, 4]             256
          Conv2d-153            [-1, 128, 4, 4]         147,456
      BasicBlock-154            [-1, 128, 4, 4]               0
     BatchNorm2d-155            [-1, 128, 4, 4]             256
          Conv2d-156            [-1, 128, 4, 4]         147,456
      BasicBlock-157            [-1, 128, 4, 4]               0
     BatchNorm2d-158            [-1, 128, 4, 4]             256
          Conv2d-159            [-1, 128, 4, 4]         147,456
     BatchNorm2d-160            [-1, 128, 4, 4]             256
          Conv2d-161            [-1, 128, 4, 4]         147,456
          Conv2d-162            [-1, 128, 4, 4]         147,456
     BatchNorm2d-163            [-1, 128, 4, 4]             256
     BatchNorm2d-164            [-1, 128, 4, 4]             256
      BasicBlock-165            [-1, 128, 4, 4]               0
          Conv2d-166            [-1, 128, 4, 4]         147,456
      BasicBlock-167            [-1, 128, 4, 4]               0
          Conv2d-168            [-1, 128, 4, 4]         147,456
     BatchNorm2d-169            [-1, 128, 4, 4]             256
     BatchNorm2d-170            [-1, 128, 4, 4]             256
          Conv2d-171            [-1, 128, 4, 4]         147,456
          Conv2d-172            [-1, 128, 4, 4]         147,456
     BatchNorm2d-173            [-1, 128, 4, 4]             256
     BatchNorm2d-174            [-1, 128, 4, 4]             256
      BasicBlock-175            [-1, 128, 4, 4]               0
      BasicBlock-176            [-1, 128, 4, 4]               0
          Linear-177                   [-1, 10]           1,290
          ResNet-178                   [-1, 10]               0
          Linear-179                   [-1, 10]           1,290
          ResNet-180                   [-1, 10]               0
================================================================
Total params: 2,973,492
Trainable params: 2,973,492
Non-trainable params: 0
----------------------------------------------------------------
Input size (MB): 0.01
Forward/backward pass size (MB): 10.31
Params size (MB): 11.34
Estimated Total Size (MB): 21.67
----------------------------------------------------------------
